{
    "D": "DiscriminatorWithCondition(\n  (fc_condition): Sequential(\n    (0): Linear(in_features=33, out_features=25, bias=True)\n    (1): LeakyReLU(negative_slope=0.2, inplace=True)\n  )\n  (net): Sequential(\n    (0): Linear(in_features=104, out_features=256, bias=True)\n    (1): LeakyReLU(negative_slope=0.2, inplace=True)\n    (2): Linear(in_features=256, out_features=256, bias=True)\n    (3): LeakyReLU(negative_slope=0.2, inplace=True)\n  )\n  (output_head): Linear(in_features=256, out_features=1, bias=True)\n)",
    "D_optimizer": "DiscriminatorWithCondition(\n  (fc_condition): Sequential(\n    (0): Linear(in_features=33, out_features=25, bias=True)\n    (1): LeakyReLU(negative_slope=0.2, inplace=True)\n  )\n  (net): Sequential(\n    (0): Linear(in_features=104, out_features=256, bias=True)\n    (1): LeakyReLU(negative_slope=0.2, inplace=True)\n    (2): Linear(in_features=256, out_features=256, bias=True)\n    (3): LeakyReLU(negative_slope=0.2, inplace=True)\n  )\n  (output_head): Linear(in_features=256, out_features=1, bias=True)\n)",
    "G": "GeneratorWithCondition(\n  (fc_condition): Sequential(\n    (0): Linear(in_features=33, out_features=25, bias=True)\n    (1): LeakyReLU(negative_slope=0.2, inplace=True)\n  )\n  (model): Sequential(\n    (0): Linear(in_features=153, out_features=256, bias=True)\n    (1): LeakyReLU(negative_slope=0.2, inplace=True)\n    (2): Linear(in_features=256, out_features=256, bias=True)\n    (3): BatchNorm1d(256, eps=1e-05, momentum=0.1, affine=True, track_running_stats=True)\n    (4): LeakyReLU(negative_slope=0.2, inplace=True)\n    (5): Linear(in_features=256, out_features=79, bias=True)\n    (6): Sigmoid()\n  )\n)",
    "G_optimizer": "GeneratorWithCondition(\n  (fc_condition): Sequential(\n    (0): Linear(in_features=33, out_features=25, bias=True)\n    (1): LeakyReLU(negative_slope=0.2, inplace=True)\n  )\n  (model): Sequential(\n    (0): Linear(in_features=153, out_features=256, bias=True)\n    (1): LeakyReLU(negative_slope=0.2, inplace=True)\n    (2): Linear(in_features=256, out_features=256, bias=True)\n    (3): BatchNorm1d(256, eps=1e-05, momentum=0.1, affine=True, track_running_stats=True)\n    (4): LeakyReLU(negative_slope=0.2, inplace=True)\n    (5): Linear(in_features=256, out_features=79, bias=True)\n    (6): Sigmoid()\n  )\n)",
    "args": {
        "G_train_freq": 1,
        "batch_size": 256,
        "classifier_path": "./models/classifier/20-05-2021_12h01m/classifier.gz",
        "clip_val": 0.1,
        "compute_euclidean_distances": true,
        "condition_latent_dim": 25,
        "condition_size": 33,
        "data_path": "./data/cic-ids-2017_splits/seed_0/",
…
