…
dim": 100, "num_features": 79, "num_labels": 14, "G_train_freq": 1, "lr": 0.0002, "clip_val": 0.1, "log_freq": 2000, "log_tensorboard_freq": 100, "eval_freq": 1, "save_freq": 20, "use_wgan": true, "use_gp": false, "use_label_weights": true, "run_significance_tests": true, "compute_euclidean_distances": true, "log_dir": "./tensorboard", "model_save_dir": "./models", "data_path": "./data/cic-ids-2017_splits/seed_0/", "classifier_path": "./models/classifier/20-05-2021_12h01m/classifier.gz"}, "log_dir": "./tensorboard/cwgan", "model_save_dir": "./models/cwgan", "G": "Generator(\n  (label_embedding): Embedding(14, 14)\n  (model): Sequential(\n    (0): Linear(in_features=114, out_features=256, bias=True)\n    (1): LeakyReLU(negative_slope=0.2, inplace=True)\n    (2): Linear(in_features=256, out_features=256, bias=True)\n    (3): BatchNorm1d(256, eps=0.8, momentum=0.1, affine=True, track_running_stats=True)\n    (4): LeakyReLU(negative_slope=0.2, inplace=True)\n    (5): Linear(in_features=256, out_features=79, bias=True)\n    (6): Sigmoid()\n  )\n)", "D": "Discriminator(\n  (label_embedding): Embedding(14, 14)\n  (model): Sequential(\n    (0): Linear(in_features=93, out_features=256, bias=True)\n    (1): LeakyReLU(negative_slope=0.2, inplace=True)\n    (2): Linear(in_features=256, out_features=256, bias=True)\n    (3): LeakyReLU(negative_slope=0.2, inplace=True)\n    (4): Linear(in_features=256, out_features=1, bias=True)\n  )\n)", "G_optimizer": "Generator(\n  (label_embedding): Embedding(14, 14)\n  (model): Sequential(\n    (0): Linear(in_features=114, out_features=256, bias=True)\n    (1): LeakyReLU(negative_slope=0.2, inplace=True)\n    (2): Linear(in_features=256, out_features=256, bias=True)\n    (3): BatchNorm1d(256, eps=0.8, momentum=0.1, affine=True, track_running_stats=True)\n    (4): LeakyReLU(negative_slope=0.2, inplace=True)\n    (5): Linear(in_features=256, out_features=79, bias=True)\n    (6): Sigmoid()\n  )\n)", "D_optimizer": "Discriminator(\n  (label_embedding): Embedding(14, 14)\n  (model): Sequential(\n    (0): Linear(in_features=93, out_features=256, bias=True)\n    (1): LeakyReLU(negative_slope=0.2, inplace=True)\n    (2): Linear(in_features=256, out_features=256, bias=True)\n    (3): LeakyReLU(negative_slope=0.2, inplace=True)\n    (4): Linear(in_features=256, out_features=1, bias=True)\n  )\n)"}